Barracuda/Tests/Editor/mnist-cnn-mini.onnx (onnx, 18085 bytes, 10 tensors)

dense_8/kernel:0 f4 [144, 10]
0.19669814 0.023215536 0.1341363 0.07614446 0.10430163 -0.16436604 -0.11833154 -0.055642843
-0.021216672 -0.10724689 -0.15497106 -0.19255517 0.20279387 0.14189711 -0.19965428 -0.3551194
-0.12993152 0.07836839 -0.17196682 -0.109116144 -0.091575995 -0.24838588 0.12121029 -0.30067503
0.124037996 0.1136141 0.0372992 -0.18379156 0.14304568 0.031186484 -0.17483434 -0.19284886
-0.19158818 -0.30780363 0.116252825 0.08471171 0.13511358 -0.24656184 0.14372618 0.13009602
0.115742415 0.022737473 -0.098340265 -0.19705795 -0.01834323 -0.15336719 -0.12762196 0.07615001
-0.3986253 0.12379979 -0.054554842 0.007755999 0.31765696 0.070968494 0.21267308 -0.23930143
0.06935299 -0.023920093 -0.24133606 -0.664048 -0.28853765 0.054606177 -0.09265921 -0.17625313
0.044759344 -0.01431774 0.14166097 0.18732145 -0.15775336 -0.501959 -0.11052171 -0.2213202
0.093344994 0.07639427 -0.08550161 0.08427826 -0.09528737 -0.12209607 0.1675955 0.12387005
0.006733574 -0.07069202 -0.25846937 -0.0827172 -0.3319945 -0.018983914 -0.04046018 0.049796093
-0.06580175 -0.078428514 0.08032647 0.11699666 0.18868703 0.13930048 -0.027522197 -0.0003263895
0.06333502 -0.08406642 -0.13893704 -0.40700495 -0.08967864 0.088000275 -0.07981589 0.11814628
0.08725617 -0.0281775 -0.060689155 0.036967825 -0.33999446 0.05551871 0.018851303 0.04522738
0.03750089 -0.1155558 -0.15165561 -0.028000448 0.13189076 -0.5018543 -0.03578623 -0.09282652
0.15361552 0.16296376 -0.2632425 -0.08255879 0.03419429 0.05417376 -0.064607084 0.0073181824
-0.040124055 -0.16184725 -0.2990564 0.086966984 0.10562583 0.088903606 -0.26674944 -0.1324664
-0.4620889 0.21867764 -0.17053172 -0.42424056 -0.0616322 -0.18503167 -0.23126021 -0.052350257
-0.11488753 0.116614856 -0.03188152 -0.050345395 0.08945815 0.056018386 -0.16848041 -0.01992847
0.098058365 0.2230344 -0.36259124 -0.17168245 -0.4015139 0.077050805 -0.086399585 -0.44589043
-0.08464279 -0.0054888814 -0.07193137 -0.07758698 0.065465145 -0.19122802 -0.37931836 -0.29931244
0.05774118 0.2080991 -0.023013 -0.10991326 -0.087733686 -0.30608848 -0.10234978 -0.12351938
0.16864434 -0.08664209 -0.109443456 0.09268077 -0.44391894 0.05039517 -0.02592935 -0.17219695
0.089574486 0.061862912 0.10229697 -0.16927654 0.062667705 -0.11357444 -0.052684292 -0.41476566
-0.2551785 -0.14741015 0.17608036 0.059981905 0.23591088 -0.21616283 0.08354349 -0.013396305
0.11803221 0.07081568 -0.0947 -0.16682276 -0.06755462 -0.062187888 -0.032211397 0.09101677
-0.103195444 0.10080395 -0.12425959 -0.07208056 0.25604 0.17830397 0.16042964 -0.38920608
-0.24943618 0.15381192 0.17546014 -0.5141847 0.09097536 0.25990918 0.05495732 -0.029526275
-0.152566 -0.36496693 -0.1578995 0.14869875 -0.4911285 -0.04617003 -0.021134641 -0.60467964
-0.035177663 0.029359981 -0.04532588 -0.001350237 -0.09861306 -0.38258886 0.07665441 0.04811905
0.10493531 0.19412893 -0.13588955 0.027090296 -0.07598572 0.11313689 -0.010949912 0.042105537
0.049662393 -0.052345254 -0.02433734 0.24180464 0.05828292 -0.15893358 0.086371064 0.07013517
00000000: 3d6b 493e 822e be3c 075b 093e a0f1 9b3d
00000010: 189c d53d 924f 28be ce57 f2bd c0e9 63bd
00000020: 96ce adbc 42a4 dbbd bcb0 1ebe 2f2d 45be
00000030: 32a9 4f3e 7a4d 113e 2c72 4cbe 36d2 b5be
00000040: c50c 05be 9b7f a03d 1218 30be 4978 dfbd
00000050: 328c bbbd de58 7ebe 1a3d f83d 14f2 99be
00000060: a207 fe3d 82ae e83d 0cc7 183d db33 3cbe
00000070: 917a 123e cc7a ff3c c607 33be 2c7a 45be
00000080: b12f 44be 7098 9dbe f615 ee3d 557d ad3d
00000090: 375b 0a3e b57a 7cbe f52c 133e e437 053e
000000a0: 5c0a ed3d f043 ba3c 9f66 c9bd 8fc9 49be
000000b0: 8b44 96bc 4a0c 1dbe 55af 02be 89f4 9b3d
000000c0: 9e18 ccbe bf8a fd3d e674 5fbd 0926 fe3b
000000d0: efa3 a23e ee57 913d f9c6 593e 6f0b 75be
000000e0: f108 8e3d 12f4 c3bc cd20 77be 0dff 29bf
000000f0: 35bb 93be baaa 5f3d 1dc4 bdbd b37b 34be
00000100: 9355 373d f494 6abc 930f 113e 32d1 3f3e
00000110: 198a 21be 6380 00bf 3559 e2bd c3a1 62be
00000120: a92b bf3d 9974 9c3d 781b afbd 159a ac3d
00000130: 0626 c3bd 810d fabd 289e 2b3e 95af fd3d
00000140: 50a5 dc3b fac6 90bd 1956 84be a367 a9bd
00000150: 2ffb a9be 2784 9bbc 93b9 25bd fdf6 4b3d
00000160: 11c3 86bd 219f a0bd 3482 a43d f29b ef3d
00000170: 2c37 413e c9a4 0e3e 3b76 e1bc 421f abb9
00000180: cab5 813d 042b acbd 8345 0ebe f462 d0be
00000190: 6fa9 b7bd 7d39 b43d 8376 a3bd adf6 f13d
000001a0: 5db3 b23d 80d4 e6bc 3195 78bd 936b 173d
000001b0: c113 aebe 9667 633d 0c6e 9a3c 5840 393d
000001c0: 899a 193d 85a8 ecbd 9c4b 1bbe 3261 e5bc
000001d0: 5f0e 073e 8679 00bf 9594 12bd d51b bebd
000001e0: 634d 1d3e f9df 263e b9c7 86be 9514 a9bd
000001f0: 500f 0c3d 4ee5 5d3d b850 84bd 5dcd ef3b
00000200: 1f59 24bd 49bb 25be ec1d 99be bf1b b23d
00000210: 5b52 d83d 1813 b63d 6293 88be 46a5 07be
00000220: eb96 ecbe 08ed 5f3e de9f 2ebe 0f36 d9be
00000230: 0c72 7cbd f178 3dbe 7acf 6cbe 396d 56bd
00000240: 274a ebbd c5d3 ee3d 3296 02bd f936 4ebd
00000250: d635 b73d 8973 653d 2186 2cbe 0841 a3bc
00000260: d3d2 c83d 2163 643e 8fa5 b9be 86cd 2fbe
00000270: 3b93 cdbe d0cc 9d3d 44f2 b0bd c04b e4be
00000280: 3359 adbd 13dc b3bb c150 93bd ece5 9ebd
00000290: 9712 863d 47d1 43be 0436 c2be 7b3f 99be
000002a0: 0482 6c3d ee17 553e c285 bcbc 341a e1bd
000002b0: b8ad b3bd a1b7 9cbe c39c d1bd bbf7 fcbd
000002c0: 1ab1 2c3e 6871 b1bd e423 e0bd 6acf bd3d
000002d0: 5849 e3be 2a6b 4e3d ca69 d4bc 6654 30be
000002e0: d472 b73d f763 7d3d 1381 d13d d456 2dbe
000002f0: ed57 803d b799 e8bd 7ccb 57bd 2a5c d4be
00000300: c2a6 82be b0f2 16be 694e 343e 96af 753d
00000310: 9f92 713e ca59 5dbe d918 ab3d 2d7c 5bbc
00000320: dfba f13d d007 913d 13f2 c1bd 96d3 2abe
00000330: 145a 8abd bab8 7ebd 19f0 03bd 0067 ba3d
00000340: 2258 d3bd 4d72 ce3d d07b febd f99e 93bd
00000350: ad17 833e 5195 363e ab47 243e 0546 c7be
00000360: 336c 7fbe df80 1d3e d3ab 333e 9ca1 03bf
00000370: 4a51 ba3d d112 853e ed1a 613d 16e1 f1bc
00000380: 433a 1cbe f2dc babe 68b0 21be 7c44 183e
00000390: 3275 fbbe c91c 3dbd 8e22 adbc 49cc 1abf
000003a0: 7416 10bd 5884 f03c a1a7 39bd 70fa b0ba
000003b0: a5f5 c9bd b0e2 c3be fdfc 9c3d 7b18 453d
000003c0: 53e8 d63d bcc9 463e a126 0bbe 78ec dd3c
000003d0: 679e 9bbd 50b4 e73d 4267 33bc db76 2c3d
000003e0: cb6a 4b3d fa67 56bd 1a5f c7bc a39b 773e
000003f0: 12ba 6e3d 7cbf 22be 50e3 b03d 07a3 8f3d

dense_8/bias:0 f4 [10]
-0.11109996 0.037620924 -0.17767075 0.001391534 -0.021136254 -0.03705172 -0.10358524 -0.07155434
0.3184495 -0.028011315
00000000: 6088 e3bd 6618 1a3d 52ef 35be 2264 b63a
00000010: f025 adbc 8bc3 17bd 8024 d4bd 158b 92bd
00000020: d00b a33e fc77 e5bc

conv2d_37/kernel:0 f4 [16, 8, 3, 3]
0.060049884 0.16252162 0.16781513 0.018033044 0.09836537 0.068098605 -0.04020671 -0.076885
0.2096683 0.025967127 -0.013370997 0.21204165 0.01861741 -0.10264848 0.04602603 -0.0971174
-0.19516051 -0.37464994 0.028378779 0.099319234 -0.14520691 0.05906761 0.031200552 -0.065192595
0.30893895 0.060053453 -0.19875889 -0.124952406 0.10959342 0.32853475 0.10138878 -0.19710743
-0.3801393 0.016525406 0.13152838 -0.08253424 0.05601668 0.055119123 0.13669603 -0.010976464
0.18699121 -0.040110767 0.0040731938 -0.13311793 -0.25088948 0.1795102 0.057882443 -0.21432523
0.17154974 -0.09273321 -0.04137243 0.021259204 -0.07366889 0.060935535 0.07038492 0.04642708
-0.10698032 -0.1487931 -0.2766343 -0.08735864 -0.028463831 0.04156922 0.18544531 -0.14915481
-0.059045937 0.37619427 -0.14533451 0.10457244 0.01636472 -0.104154944 -0.04901194 -0.28076926
0.09977707 0.05706688 0.15903524 0.28636292 0.032288052 0.23691161 -0.06386405 -0.16770859
0.15702623 -0.05804681 0.04501602 -0.09069896 0.21339868 0.32952324 0.22735243 0.20748678
0.123069346 0.069045134 -0.12950696 0.08054913 -0.015443852 0.19313462 0.18817003 -0.057743505
-0.10328179 -0.17329304 -0.11487922 0.11326365 0.012464076 0.09315621 0.08711046 0.051652074
0.2554227 0.09617861 -0.13530327 0.056987748 -0.04926231 -0.06897525 -0.051326387 -0.06725613
-0.17115471 -0.05658638 -0.088917196 0.07304775 0.05279193 -0.09281362 -0.11524927 -0.020442078
-0.016541526 -0.028650282 -0.0826596 -0.087350704 0.14136007 -0.07694181 0.15882418 0.291167
0.004358604 0.016120926 0.030229598 -0.12915292 0.19913983 -0.15344733 -0.31812468 -0.12237745
0.03685035 0.10195475 -0.04797922 0.058645077 0.011731023 -0.2641123 -0.2659477 0.041566424
0.046671018 -0.12615855 0.0942186 0.026664954 -0.22495499 -0.05915377 -0.042729672 0.039157905
-0.10979593 -0.25097832 0.052623857 -0.1213682 -0.20888804 -0.28502452 -0.08718516 -0.10661506
0.16684455 0.15149695 -0.06688873 -0.07704953 -0.024344027 0.07486132 -0.07404531 0.012379999
0.11860545 0.24029166 0.10993324 -0.37613878 -0.034368943 0.14565563 -0.22000325 -0.15425831
0.124139346 -0.0073420717 0.10263996 0.007802502 -0.08295075 -0.04346756 -0.02845049 0.120504625
0.031561676 -0.14244424 0.08532266 0.111658804 0.12791388 0.16370988 0.10373976 -0.1359706
0.02783145 0.30701646 -0.21856809 -0.0008150715 0.114082776 -0.26433465 0.12750223 -0.027890846
-0.14763662 0.061633877 0.14648896 0.06300792 -0.23970616 -0.1307532 0.017519493 -0.12054089
-0.36157802 -0.0026181948 -0.15993984 -0.026068702 -0.0018823122 0.11200402 0.09985203 0.008205528
-0.07788966 -0.051276226 0.01310325 -0.0072536175 -0.0057331054 0.052850056 -0.009557921 -0.089579694
-0.067613244 -0.06532104 -0.008405765 -0.04928499 -0.40329742 -0.24851333 -0.04531248 -0.29753327
-0.053644862 -0.007756615 0.122134894 0.09060687 0.082076356 -0.28966993 -0.1021257 0.13331474
-0.2188483 0.19070245 0.2834534 -0.08731726 -0.12376507 -0.07940089 0.07796203 0.013211464
0.09500434 0.16171136 0.16565864 0.119260505 -0.2306115 -0.09644521 -0.2269924 -0.21431588
00000000: def6 753d 116c 263e bbd7 2b3e 09ba 933c
00000010: c873 c93d 4877 8b3d cbaf 24bd e275 9dbd
00000020: 49b3 563e 03b9 d43c 0712 5bbc 7221 593e
00000030: 8a83 983c 5e39 d2bd ca85 3c3d 7de5 c6bd
00000040: 28d8 47be 1ed2 bfbe 9d7a e83c e267 cb3d
00000050: 1fb1 14be e1f0 713d 4d98 ff3c b283 85bd
00000060: 3f2d 9e3e 9cfa 753d 7387 4bbe 0ce7 ffbd
00000070: 8472 e03d b535 a83e eca4 cf3d 88d6 49be
00000080: 9ea1 c2be 4a60 873c 60af 063e b607 a9bd
00000090: bf71 653d 97c4 613d 0bfa 0b3e a0d6 33bc
000000a0: a07a 3f3e 304b 24bd 6d78 853b 1150 08be
000000b0: 9674 80be 86d1 373e 2416 6d3d 1378 5bbe
000000c0: bcaa 2f3e e9ea bdbd 2376 29bd c827 ae3c
000000d0: b7df 96bd 8a97 793d f825 903d 522a 3e3d
000000e0: 7f18 dbbd 385d 18be 03a3 8dbe 16e9 b2bd
000000f0: fb2c e9bc 7d44 2a3d 60e5 3d3e 0abc 18be
00000100: 27da 71bd 899c c03e 92d2 14be 132a d63d
00000110: 4e0f 863c 304f d5bd bec0 48bd fdc0 8fbe
00000120: ec57 cc3d f6be 693d 22da 223e 299e 923e
00000130: 7a40 043d f598 723e 28cb 82bd cdbb 2bbe
00000140: 7ccb 203e 7ec2 6dbd b862 383d 60c0 b9bd
00000150: 2f85 5a3e 45b7 a83e 13cf 683e 6a77 543e
00000160: c80b fc3d 8967 8d3d 799d 04be f1f6 a43d
00000170: 3608 7dbc 15c5 453e a5af 403e 7484 6cbd
00000180: 6785 d3bd bb73 31be cc45 ebbd c6f6 e73d
00000190: 2036 4c3c afc8 be3d f866 b23d 2091 533d
000001a0: c4c6 823e 4bf9 c43d f18c 0abe fc6b 693d
000001b0: 47c7 49bd e542 8dbd 9e3b 52bd 95bd 89bd
000001c0: 2e43 2fbe 1fc7 67bd 381a b6bd 0f9a 953d
000001d0: 5a3c 583d 1115 bebd cf07 ecbd 2576 a7bc
000001e0: 1882 87bc ffb3 eabc 7049 a9bd ede4 b2bd
000001f0: b2c0 103e ab93 9dbd cea2 223e d713 953e
00000200: 9fd2 8e3b 0810 843c 10a4 f73c aa40 04be
00000210: 50eb 4b3e 4c21 1dbe 3de1 a2be 07a1 fabd
00000220: 65f0 163d a7cd d03d dc85 44bd d235 703d
00000230: 7a33 403c ba39 87be 4c2a 88be 8e41 2a3d
00000240: 1c2a 3f3d b52f 01be aef5 c03d 7670 da3c
00000250: 9a5a 66be 394b 72bd 4f05 2fbd 0a64 203d
00000260: b0dc e0bd 3b80 80be 1d8c 573d e48f f8bd
00000270: bfe6 55be bcee 91be 228e b2bd ff58 dabd
00000280: 4cd9 2a3e 0422 1b3e f5fc 88bd 25cc 9dbd
00000290: 206d c7bc e450 993d 11a5 97bd 7bd5 4a3c
000002a0: 6ae7 f23d 040f 763e ae24 e13d 4395 c0be
000002b0: 73c6 0cbd c026 153e 8848 61be e4f5 1dbe
000002c0: c53c fe3d c395 f0bb e634 d23d 21ac ff3b
000002d0: 15e2 a9bd 0a0b 32bd 0111 e9bc 21cb f63d
000002e0: d146 013d e7dc 11be a6bd ae3d 5fad e43d
000002f0: dbfb 023e 90a3 273e 8375 d43d e13b 0bbe
00000300: c8fe e33c 4331 9d3e 50d0 5fbe 86aa 55ba
00000310: 3ba4 e93d df56 87be f28f 023e 587b e4bc
00000320: 0e2e 17be ce73 7c3d 3401 163e 4c0a 813d
00000330: 8875 75be 2be4 05be 0a85 8f3c 24de f6bd
00000340: c120 b9be 0596 2bbb 45c7 23be 088e d5bc
00000350: ebb7 f6ba 5d62 e53d 397f cc3d 7b70 063c
00000360: 9d84 9fbd 0507 52bd 04af 563c c1af edbb
00000370: c6dc bbbb 4d79 583d d498 1cbc 8f75 b7bd
00000380: d078 8abd 0ac7 85bd 55b8 09bc 0fdf 49bd
00000390: 007d cebe 477a 7ebe 9499 39bd 4856 98be
000003a0: b7ba 5bbd 342b febb dc21 fa3d 1890 b93d
000003b0: a617 a83d 9e4f 94be 4727 d1bd a983 083e
000003c0: c519 60be 8147 433e ce20 913e 64d3 b2bd
000003d0: 8b78 fdbd ef9c a2bd 8faa 9f3d e574 583c
000003e0: a391 c23d aa97 253e 6ba2 293e da3e f43d
000003f0: 6c25 6cbe 1185 c5bd b270 68be 9f75 5bbe

conv2d_37/bias:0 f4 [16]
0.14872302 0.0805411 0.038593657 -0.011265784 0.02452044 0.04550278 0.026691288 -0.03013392
0.033672404 -0.003861295 -0.01940127 0.07696432 0.038515307 -0.04107252 -0.050457716 -0.09616004
00000000: d94a 183e bbf2 a43d 6214 1e3d 1f94 38bc
00000010: 17df c83c 1f61 3a3d b0a7 da3c 69db f6bc
00000020: 13ec 093d c80d 7dbb 6aef 9ebc 789f 9d3d
00000030: 3ac2 1d3d a93b 28bd c0ac 4ebd 8eef c4bd

conv2d_36/kernel:0 f4 [8, 8, 3, 3]
0.0011923987 -0.108706094 0.0077714226 -0.20103933 0.0061363312 -0.1233136 -0.147858 0.035380162
-0.03455984 -0.13733244 0.027030727 0.0644281 -0.16604844 -0.09434622 -0.17997222 -0.29956988
-0.14097093 0.10485036 0.014313782 0.11722871 0.15187916 -0.12271485 0.08088175 -0.03629237
-0.12149472 0.06615353 0.25848305 -0.020255394 0.22686611 0.42184332 -0.2830113 -0.01956924
0.0630549 -0.12155764 0.15302572 0.0058717495 0.09889447 0.100926906 -0.029701395 0.037867364
-0.18554367 -0.07070058 -0.17214282 -0.19977625 -0.052852996 -0.05884795 -0.16133742 -0.14114948
-0.061005823 -0.09704949 -0.20149328 -0.2222154 -0.21182543 -0.22491065 0.061647005 0.038900796
0.18237562 -0.14913726 -0.122444145 0.1126241 -0.07693956 0.082410246 0.2175552 0.16734885
0.0050159013 -0.07871566 0.008988238 0.006144272 -0.025045183 0.037853535 -0.05966539 0.11991957
-0.34875283 0.10467752 -0.1555679 0.01598938 0.100105256 -0.19511138 0.37226927 0.16622126
0.2929423 -0.2450136 -0.19612658 0.09109645 -0.001194674 -0.23282412 -0.36386612 0.0318127
0.1289399 0.156847 0.16852927 0.34212628 0.4694289 -0.37925762 -0.26941818 -0.29637036
-0.12794408 0.14900552 0.21668379 -0.2665957 0.17565529 0.3557026 -0.08018145 -0.2132895
-0.30689904 0.31189752 -0.1840989 -0.36430636 -0.16421846 0.0903859 0.28060687 -0.20370333
-0.24139392 -0.26297215 0.03160254 0.14268285 -0.029668352 -0.4515343 -0.23865168 0.11060154
-0.07142905 -0.20588046 -0.4121225 0.22749022 0.141192 0.22468145 0.21909891 -0.013441136
0.0028006637 0.3425397 0.35278443 0.16179371 0.08286259 -0.10533584 -0.08874682 -0.02429111
-0.13608384 0.12364704 0.11487368 0.06480202 0.00095890206 0.13878214 0.15936843 -0.11389875
-0.027134184 -0.10652135 0.011906318 0.2383806 -0.017341211 0.23099661 0.3122937 -0.025372785
0.0907721 0.12306057 0.044948176 0.04829135 -0.26544923 0.2122925 0.11997381 0.14253776
0.28230423 -0.01839707 0.17498891 0.1248999 0.28235328 0.03290698 -0.04887595 0.03118339
0.21107404 0.04201895 -0.11746733 -0.03798428 -0.122337095 -0.0007810084 0.0391383 0.07709316
0.039242204 0.0065254965 0.08934599 0.08878364 -0.08143437 0.081219345 -0.3250412 0.0485492
0.011714685 -0.025871791 -0.1056936 -0.0040337415 0.16949585 -0.0046565924 -0.16440766 -0.11767152
0.0055572838 0.07336879 -0.015503433 -0.14170901 -0.31475443 -0.15495309 0.057624403 0.25048608
0.19955833 0.0442863 -0.03889937 0.017367834 -0.12625533 -0.20753856 0.12916559 -0.29100955
-0.019630095 -0.22178006 0.13871238 -0.074762486 0.32775828 0.24686803 0.3577054 0.22235636
0.14129446 0.28960872 0.25961548 0.06478203 0.180404 0.16848691 0.06815269 0.19746038
-0.22042647 0.2883254 0.22792514 0.32426804 0.22112076 -0.013401747 -0.048735417 0.04088219
0.0060387934 -0.22549625 -0.38267156 -0.16146217 0.042229954 -0.25290272 -0.031065365 0.012004432
0.123468116 -0.022811618 -0.27003786 0.14420259 0.2298031 0.09142814 0.14523976 0.17967887
0.017957347 -0.02453833 -0.09201838 0.0906164 -0.0016168227 0.116717786 0.19241412 0.072745204
00000000: 434a 9c3a 4da1 debd 6ba7 fe3b 41dd 4dbe
00000010: 4713 c93b d78b fcbd 1668 17be caea 103d
00000020: 9e8e 0dbd e0a0 0cbe 8b6f dd3c e1f2 833d
00000030: 9a08 2abe 9738 c1bd a34a 38be 3961 99be
00000040: af5a 10be c9bb d63d 5a84 6a3c 9b15 f03d
00000050: 3686 1b3e ec51 fbbd 55a5 a53d 4fa7 14bd
00000060: 39d2 f8bd 807b 873d e457 843e a4ee a5bc
00000070: 974f 683e d9fb d73e dbe6 90be ac4f a0bc
00000080: ed22 813d 36f3 f8bd c6b2 1c3e ce67 c03b
00000090: 2f89 ca3d c4b2 ce3d 5750 f3bc cf1a 1b3d
000000a0: 29ff 3dbe 77cb 90bd 3546 30be 2592 4cbe
000000b0: 627c 58bd 8c0a 71bd a335 25be 7d89 10be
000000c0: 3ee1 79bd e2c1 c6bd 4154 4ebe 6f8c 63be
000000d0: c4e8 58be fa4e 66be 9281 7c3d 7156 1f3d
000000e0: adc0 3a3e 70b7 18be ffc3 fabd 77a7 e63d
000000f0: 7d92 9dbd b4c6 a83d cac6 5e3e 7f5d 2b3e
00000100: 6e5c a43b ad35 a1bd 6743 133c e455 c93b
00000110: 8e2b cdbc 4f0c 1b3d b263 74bd 6498 f53d
00000120: bb8f b2be 2b61 d63d 314d 1fbe 29fc 823c
00000130: fc03 cd3d 47cb 47be 149a be3e e835 2a3e
00000140: 88fc 953e d8e4 7abe 68d5 48be c790 ba3d
00000150: 9c96 9cba 7269 6ebe a94c babe 094e 023d
00000160: d208 043e 809c 203e f092 2c3e 2d2b af3e
00000170: fc58 f03e 0e2e c2be 2ef1 89be dbbd 97be
00000180: c603 03be e794 183e 5be2 5d3e 3b7f 88be
00000190: fbde 333e a71e b63e 2c36 a4bd 9068 5abe
000001a0: df21 9dbe 08b1 9f3e 6c84 3cbe 5d86 babe
000001b0: e228 28be 3e1c b93d b4ab 8f3e 9b97 50be
000001c0: f82f 77be 49a4 86be aa71 013d 741b 123e
000001d0: 0b0b f3bc 812f e7be 1b61 74be 0f83 e23d
000001e0: 6549 92bd 54d2 52be b801 d3be 32f3 683e
000001f0: a394 103e e512 663e 775b 603e 3638 5cbc
00000200: 578b 373b 5d61 af3e 29a0 b43e 40ad 253e
00000210: ddb3 a93d 51ba d7bd e5c0 b5bd 26fe c6bc
00000220: 9059 0bbe a93a fd3d e442 eb3d ecb6 843d
00000230: d45e 7b3a e81c 0e3e 7a31 233e bf43 e9bd
00000240: 8248 debc de27 dabd b812 433c 0b1a 743e
00000250: 280f 8ebc 608a 6c3e f6e4 9f3e 96da cfbc
00000260: b9e6 b93d 2e07 fc3d 941b 383d 27cd 453d
00000270: f6e8 87be 3563 593e d4b4 f53d 6bf5 113e
00000280: 2e8a 903e 74b5 96bc 4b30 333e 85cb ff3d
00000290: 9c90 903e 78c9 063d 2632 48bd 4f74 ff3c
000002a0: cb23 583e 101c 2c3d b692 f0bd 6895 1bbd
000002b0: df8b fabd 96bc 4cba 7b4f 203d 05e3 9d3d
000002c0: 6fbc 203d d5d3 d53b 08fb b63d 32d4 b53d
000002d0: 10c7 a6bd 5456 a63d cd6b a6be 87db 463d
000002e0: f3ee 3f3c 14f1 d3bc e375 d8bd 7a2d 84bb
000002f0: 5290 2d3e 5496 98bb 7b5a 28be c4fd f0bd
00000300: e019 b63b 6042 963d 1c02 7ebc 2b1c 11be
00000310: 7e27 a1be 06ac 1ebe 9107 6c3d b63f 803e
00000320: 0559 4c3e 8d65 353d f254 1fbd fd46 8e3c
00000330: 1449 01be fd84 54be fc43 043e 34ff 94be
00000340: 4bcf a0bc 501a 63be 9e0a 0e3e 131d 99bd
00000350: efcf a73e f9ca 7c3e 2a25 b73e 63b1 633e
00000360: 7faf 103e 9847 943e 52ec 843e 71ac 843d
00000370: d4bb 383e d587 2c3e a393 8b3d 0e33 4a3e
00000380: 7ab7 61be 639f 933e 3565 693e 7606 a63e
00000390: 7b6d 623e 0093 5bbc ca9e 47bd 1574 273d
000003a0: 12e1 c53b 7de8 66be 87ed c3be 5756 25be
000003b0: 51f9 2c3d 777c 81be cb7c febc 3dae 443c
000003c0: dadc fc3d 6edf babc 6742 8abe d8a9 133e
000003d0: 8151 6b3e ad3e bb3d bbb9 143e bdfd 373e
000003e0: 491b 933c 9c04 c9bc 2274 bcbd 1795 b93d
000003f0: 91eb d3ba bc09 ef3d 3508 453e 70fb 943d

conv2d_36/bias:0 f4 [8]
0.2841484 0.09587595 -0.069401816 0.026469575 -0.040225524 -0.024338307 -0.025595926 0.1473293
00000000: e67b 913e 9c5a c43d 8a22 8ebd b9d6 d83c
00000010: 85c3 24bd 2161 c7bc 8cae d1bc 7edd 163e

conv2d_35/kernel:0 f4 [8, 8, 3, 3]
0.004559438 0.03656726 0.5020864 -0.27123213 -0.04789479 0.3904754 -0.24930888 -0.042273644
0.015184826 -0.35164285 -0.42501512 -0.013471897 -0.3301565 -0.2978669 -0.27957243 -0.091958135
0.09955383 -0.04228407 0.05821078 0.09921204 -0.34263676 -0.09826473 -0.19415161 -0.29701635
-0.092056684 -0.3668625 -0.4315685 -0.065301344 0.21328545 0.15214838 0.0001570023 0.20899484
0.07049679 -0.22587046 -0.08086529 0.3151435 0.22121498 0.31309184 0.17866066 0.26112103
-0.0018794959 0.117892765 0.0827128 0.22947522 -0.04788582 -0.103931144 0.15070099 0.11497317
0.265523 0.265204 0.17847256 0.17409985 -0.092729256 0.22553214 -0.11913919 -0.114741124
-0.22060215 0.08689708 -0.113509566 0.17048632 0.1826055 -0.00033144263 0.04780551 0.285424
-0.15577592 -0.1883718 0.059164133 0.20288841 0.22043234 0.061219808 0.25942567 0.23059468
0.1213445 0.42347345 0.05241665 0.3914263 -0.026788786 -0.32582954 0.2564341 -0.17977653
-0.24674928 -0.16200073 0.20661029 -0.06178745 -0.23686108 0.1916666 0.053396523 -0.3028956
0.025963888 0.12894635 -0.18467864 -0.22245157 0.08440067 0.10876107 -0.026091726 0.2202374
0.0076961345 0.24136853 0.38275623 0.027630825 0.31478757 0.20200913 0.27609575 0.2258022
-0.098194584 0.29600978 -0.0014311441 -0.015612344 -0.0990686 -0.23801336 0.19535121 -0.120147035
0.10731978 -0.08776087 -0.038098235 -0.15331209 -0.17945136 -0.21153304 -0.17016605 0.2852595
-0.088306814 -0.049601614 0.24372931 0.16394769 0.23426962 -0.036594987 -0.011899791 -0.32847357
-0.0025343243 -0.27876997 -0.29958263 -0.12251569 -0.41785815 -0.12176851 -0.09383714 -0.28972837
-0.05963781 0.1967967 -0.16413625 -0.059607007 0.32197264 -0.06424911 0.15654221 -0.060233075
-0.62579334 0.06594822 0.20598641 -0.74168813 -0.2502482 0.08064475 -0.25155935 -0.4430823
-0.14561978 0.30541787 -0.020825153 0.18200678 0.4496419 0.10994568 0.1879506 0.30474624
0.122218795 0.030466845 -0.1132337 0.019546574 -0.030480614 -0.1398629 -0.2704649 -0.015167145
-0.24466594 -0.10520148 -0.14076447 0.11401222 0.046317082 0.04627104 0.03828936 0.052508827
0.19715148 -0.30233568 -0.20159402 -0.22511326 -0.17179929 0.2917797 -0.07539823 -0.48072162
0.06459564 0.055178013 -0.2062869 0.010481073 -0.14252618 0.089354 0.18189627 -0.041687902
-0.05039946 -0.018184118 -0.070516095 -0.03316909 -0.026518285 0.12316508 0.44627342 -0.013289334
-0.13651444 0.29994744 0.22748978 0.17474918 0.17503649 0.29254833 0.11529326 0.16840705
-0.14493753 -0.21991302 0.092733346 0.19288488 0.19698283 -0.29330784 -0.012878768 -0.007600204
-0.29697347 -0.33516923 -0.48714063 -0.40568656 -0.44333744 -0.25506663 -0.20252894 -0.0040726457
0.14729606 0.051736966 -0.06404627 -0.23291823 -0.08453497 -0.31271768 -0.4683297 -0.22510117
-0.54336554 -0.3480767 0.5937399 0.12899117 0.4039895 0.39306214 0.25552505 0.15391016
0.042050537 -0.22160082 -0.15948693 0.22844687 0.119206674 -0.19636983 -0.2035597 -0.2289304
-0.14832301 -0.27882835 -0.20765713 -0.1727485 0.2028774 0.32564136 0.119696714 0.2947207
00000000: 5767 953b 8dc7 153d bc88 003f f0de 8abe
00000010: 542d 44bd 64ec c73e d44a 7fbe 2127 2dbd
00000020: c7c9 783c 880a b4be 959b d9be 3bb9 5cbc
00000030: 460a a9be 0382 98be 1e24 8fbe 8c54 bcbd
00000040: e1e2 cb3d 1032 2dbd 6d6e 6e3d af2f cb3d
00000050: 166e afbe 053f c9bd aecf 46be 8712 98be
00000060: 3788 bcbd 67d5 bbbe 8cf6 dcbe b6bc 85bd
00000070: 8067 5a3e c9cc 1b3e fca0 2439 be02 563e
00000080: 9f60 903d 964a 67be b39c a5bd 7d5a a13e
00000090: 2e86 623e 934d a03e d2f2 363e a8b1 853e
000000a0: 6b59 f6ba c371 f13d 5465 a93d 8dfb 6a3e
000000b0: ec23 44bd dad9 d4bd 5c51 1a3e 0e77 eb3d
000000c0: a1f2 873e d2c8 873e 83c1 363e 3b47 323e
000000d0: d6e8 bdbd e6f1 663e 3fff f3bd 65fd eabd
000000e0: 88e5 61be 19f7 b13d b477 e8bd f793 2e3e
000000f0: f0fc 3a3e 7ac5 adb9 b6cf 433d 1823 923e
00000100: b983 1fbe 8ae4 40be 1756 723d fbc1 4f3e
00000110: 04b9 613e 9fc1 7a3d 71d3 843e 0321 6c3e
00000120: 7783 f83d 83d1 d83e d7b2 563d 0769 c83e
00000130: 2874 dbbc 21d3 a6be 554b 833e 5717 38be
00000140: d8ab 7cbe 85e3 25be a691 533e d614 7dbd
00000150: b68b 72be 4044 443e 50b6 5a3d 2215 9bbe
00000160: 38b2 d43c 830a 043e 661c 3dbe 58ca 63be
00000170: 42da ac3d 20be de3d 51be d5bc ea85 613e
00000180: db2f fc3b 5029 773e a0f8 c33e 0a5a e23c
00000190: d62b a13e 7bdb 4e3e 6c5c 8d3e b138 673e
000001a0: 3e1a c9bd 988e 973e 3a95 bbba ebca 7fbc
000001b0: 7ae4 cabd c6b9 73be 260a 483e a60f f6bd
000001c0: 79ca db3d f9bb b3bd e50c 1cbd d8fd 1cbe
000001d0: 19c2 37be 1e9c 58be 0240 2ebe 880d 923e
000001e0: 34da b4bd 102b 4bbd 2d94 793e e7e1 273e
000001f0: 60e4 6f3e a0e4 15bd 57f7 42bc b02d a8be
00000200: e816 26bb f0ba 8ebe e562 99be 82e9 fabd
00000210: 81f1 d5be c561 f9bd b02d c0bd 4757 94be
00000220: c746 74bd 1385 493e 5513 28be 7a26 74bd
00000230: 99d9 a43e 0a95 83bd 9a4c 203e f5b6 76bd
00000240: fe33 20bf dc0f 873d 1aee 523e 46df 3dbf
00000250: 8820 80be 1329 a53d 63cc 80be afdb e2be
00000260: 5a1d 15be bb5f 9c3e 8399 aabc fc5f 3a3e
00000270: 7737 e63e 332b e13d 1f76 403e b307 9c3e
00000280: d94d fa3d 9b95 f93c 12e7 e7bd 2320 a03c
00000290: 7bb2 f9bc 3838 0fbe 607a 8abe 9e7f 78bc
000002a0: b589 7abe e073 d7bd 9024 10be 3d7f e93d
000002b0: fbb6 3d3d b486 3d3d 4ed5 1c3d 7f13 573d
000002c0: 14e2 493e becb 9abe aa6e 4ebe 1784 66be
000002d0: 27ec 2fbe 2664 953e 636a 9abd 2521 f6be
000002e0: b84a 843d 5702 623d e03c 53be ceb8 2b3c
000002f0: 62f2 11be 3bff b63d 0443 3a3e efc0 2abd
00000300: aa6f 4ebd dcf6 94bc be6a 90bd 50dc 07bd
00000310: e03c d9bc f93d fc3d f37d e43e 82bb 59bc
00000320: 71ca 0bbe b692 993e 15f3 683e 73f1 323e
00000330: c43c 333e e5c8 953e df1e ec3d e672 2c3e
00000340: 816a 14be e130 61be fbea bd3d 9d83 453e
00000350: deb5 493e 722c 96be 7801 53bc 220b f9bb
00000360: e80c 98be 4d9b abbe 7f6a f9be 26b6 cfbe
00000370: 20fd e2be 1898 82be bf63 4fbe d473 85bb
00000380: c7d4 163e 24ea 533d b12a 83bd 1e82 6ebe
00000390: ac20 adbd 881c a0be e9c8 efbe ec80 66be
000003a0: 011a 0bbf 1c37 b2be 57ff 173f 4316 043e
000003b0: b6d7 ce3e 713f c93e 2ed4 823e a09a 1d3e
000003c0: 2f3d 2c3d 53eb 62be 8b50 23be faed 693e
000003d0: a122 f43d 2c15 49be f471 50be bb6c 6abe
000003e0: fde1 17be 97c2 8ebe 12a4 54be fce4 30be
000003f0: 18bf 4f3e 77ba a63e 8d23 f53d a2e5 963e

conv2d_35/bias:0 f4 [8]
-0.013237643 -0.031519897 0.025453292 0.049553216 0.024088504 -0.03402726 0.0470943 -0.012984649
00000000: b3e2 58bc 021b 01bd 6c83 d03c 50f8 4a3d
00000010: 4155 c53c 2b60 0bbd f4e5 403d 91bd 54bc

conv2d_34/kernel:0 f4 [8, 1, 3, 3]
-0.4393198 -0.6390866 -0.29466203 0.14409216 0.2038389 -0.04234861 0.32440263 0.3046159
0.4380655 -0.2697762 -0.08023353 0.5161115 -0.23351239 -0.050548103 0.28574395 -0.2981343
-0.120655924 0.45842174 0.38868162 0.09002969 -0.30407867 0.17947465 -0.02082033 -0.3626035
0.16542974 -0.14306091 -0.5807288 -0.13728064 -0.31409657 -0.098796904 -0.19845189 0.12055512
0.38214985 0.12265293 0.5101391 0.34489876 0.22268394 0.04321352 0.0012365498 0.38629264
0.07643773 -0.15339546 0.2877881 0.37036407 -0.3157399 -0.12273444 0.15156084 0.070348024
0.21291646 0.054392107 0.22063325 0.32365003 -0.12500067 0.06363902 0.122481965 0.3376591
0.36245248 -0.117808774 -0.064909615 0.2587989 -0.48665646 -0.16201572 -0.10939761 0.19864865
0.018162405 0.42808315 0.44392368 0.42127106 0.36182073 -0.106302 -0.0938644 -0.20026505
00000000: 86ee e0be 2e9b 23bf f1dd 96be e58c 133e
00000010: 25bb 503e bc75 2dbd 1a18 a63e 9ef6 9b3e
00000020: 1f4a e03e 1b20 8abe 7a51 a4bd e21f 043f
00000030: df1d 6fbe 870b 4fbd 084d 923e 0fa5 98be
00000040: 741a f7bd 41b6 ea3e 4701 c73e 7c61 b83d
00000050: 33b0 9bbe 34c8 373e 668f aabc 2aa7 b9be
00000060: 6a66 293e 8f7e 12be a5aa 14bf 4c93 0cbe
00000070: 44d1 a0be 0856 cabd f936 4bbe 9ae5 f63d
00000080: 25a9 c33e 7631 fb3d 7a98 023f 9296 b03e
00000090: 4207 643e a900 313d ba13 a23a 26c8 c53e
000000a0: 628b 9c3d b313 1dbe f658 933e 5ca0 bd3e
000000b0: a9a8 a1be 325c fbbd c432 1b3e a012 903d
000000c0: c606 5a3e 42ca 5e3d afed 613e 75b5 a53e
000000d0: 2d00 00be 2d55 823d d3d7 fa3d a7e1 ac3e
000000e0: 5f93 b93e ba45 f1bd 55ef 84bd 4a81 843e
000000f0: 092b f9be 73e7 25be db0b e0bd 8d6a 4b3e
00000100: 53c9 943c b72d db3e f749 e33e d7b0 d73e
00000110: 9140 b93e ddb4 d9bd fb3b c0bd 4812 4dbe

conv2d_34/bias:0 f4 [8]
0.023301115 -0.040887106 -0.0088193575 -0.0028086652 -0.002850943 0.0042919535 0.03483501 0.0026050764
00000000: fbe1 be3c 3d79 27bd 117f 10bc 9511 38bb
00000010: e3d6 3abb 84a3 8c3b 28af 0e3d eeb9 2a3b
